HW5/model.pth (torch, 195658 bytes, 3 tensors)

emb.weight f4 [467, 20]
0.66918784 0.4667354 -0.5606464 0.22198379 0.91553956 0.8267661 -0.21367136 -1.3784319
-0.3922635 -0.931717 2.4825146 -0.27878356 -0.67443126 0.5872728 -0.95439434 0.251203
-1.3511934 1.1002854 0.6653002 1.141638 0.61290014 1.150112 1.1068788 -0.36486396
0.96456254 -1.5504754 1.2362295 0.6911497 -0.010768266 0.536445 -0.619699 0.42071116
-1.3950403 -0.49972755 -1.6308991 -2.0183437 -1.4433166 0.12058687 0.37124857 -0.6230503
0.74693066 0.43120927 -1.8069128 0.026632648 -0.43693492 0.61180705 -0.38369092 0.49388894
-0.17285687 1.2470597 -0.32976818 0.51777035 -1.6192368 0.9667038 1.6825069 -0.66677964
-0.6408997 0.2078353 0.40532646 0.13990241 0.041970372 0.7903673 0.3898215 -0.4235881
0.7394793 0.29969436 0.11503537 1.624002 2.3513718 0.67406017 -0.5636873 -0.08527825
-0.40319332 -2.3278928 -0.49466354 1.906321 0.32061642 0.3045916 1.596019 0.3858266
0.06327029 2.063048 -0.5495692 -2.1811364 -1.7732042 1.5301167 0.6858465 -1.6028979
-0.079140246 -1.0622481 0.5281481 0.15604185 -1.0953653 -1.3778899 -1.3970678 -0.2084175
0.18981297 -1.6317359 0.72820395 0.1839961 0.3518247 0.19935113 1.4694723 0.39040035
0.32126486 -1.2033637 0.66505015 -0.24189752 -0.5770018 0.82640237 -1.4409823 0.372146
2.8187425 0.9160436 -0.6245097 -0.97343075 1.3541499 0.13551259 -1.2760342 -0.08630233
-0.6140123 -1.1336194 2.4182832 0.8641428 0.8943462 -1.310864 1.6472067 -0.78607625
-0.2413306 -0.8482361 0.9521128 0.5130123 0.534513 -0.98488355 -0.13392647 0.107380815
1.948817 0.5332923 0.69473135 0.03214006 -0.64404446 -0.36934003 0.81525916 -1.5678316
0.9509605 -0.18150452 0.21380377 1.4218577 -0.00050538284 0.31518808 -0.31246755 0.205386
-1.1687597 1.7838238 1.684036 0.97295374 1.059513 0.17632891 0.5322754 0.27431872
0.9518134 -0.6910573 1.8163024 -0.1258422 0.5842292 -0.32517403 1.2152883 0.542756
-0.39798954 -0.7845862 -1.0257139 0.10160094 -0.7241548 -1.2050129 -0.6861206 1.4908065
1.0218817 -0.69429153 0.3307342 -2.9217203 1.1207087 0.9369361 -0.9231669 -1.2396815
0.048325017 0.080030896 -1.233691 2.076907 2.2628944 -0.026515907 1.6316658 2.143637
-0.8905706 -1.0787783 -0.5276859 -1.2071289 -0.035556205 -0.2449315 -0.3020734 -0.16385785
0.85093147 -0.31307068 0.19880842 -1.8710139 0.7767784 -0.44589862 -0.86983424 0.45204335
0.5147665 -0.7514562 -0.3521898 -1.2988765 2.3965225 0.46810144 -0.062901676 -0.60605216
0.9632851 -0.80994445 -1.1053702 0.27510464 -1.0256816 -1.1885339 0.4996232 0.81628776
-1.0384597 -1.0657753 -1.0616534 -0.48663568 -0.7641982 -1.4825242 1.7491437 -2.0343356
1.5519851 0.69150233 -0.5300484 0.68882006 0.13096894 0.3035129 -0.24098872 -0.75948006
-0.6224508 0.29260442 0.8000028 -1.3692619 0.8681762 -2.2005353 0.08098449 -0.115942545
0.03885477 0.25387904 -0.18461111 0.43399146 0.80016935 -0.9012394 -0.31361622 -0.7335745
00000000: e54f 2b3f f1f7 ee3e 8686 0fbf b84f 633e
00000010: cd60 6a3f f1a6 533f aacc 5abe 7570 b0bf
00000020: c3d6 c8be 0185 6ebf 85e1 1e40 b8bc 8ebe
00000030: 87a7 2cbf 8357 163f 3053 74bf ae9d 803e
00000040: e8f3 acbf 27d6 8c3f 1d51 2a3f 3221 923f
00000050: 06e7 1c3f df36 933f 34ae 8d3f 73cf babe
00000060: 92ed 763f fa75 c6bf c53c 9e3f 30ef 303f
00000070: 626d 30bc 7654 093f 98a4 1ebf 7467 d73e
00000080: ae90 b2bf 4adc ffbe 4dc1 d0bf 8b2c 01c0
00000090: 99be b8bf 40f6 f63d 4b14 be3e 3980 1fbf
000000a0: d936 3f3f 76c7 dc3e eb48 e7bf b62c da3c
000000b0: efb5 dfbe 639f 1c3f 2373 c4be 03df fc3e
000000c0: 6401 31be a79f 9f3f 60d7 a8be 998c 043f
000000d0: 2743 cfbf e679 773f 635c d73f 12b2 2abf
000000e0: 0112 24bf c7d2 543e f386 cf3e 9442 0f3e
000000f0: 20e9 2b3d 8355 4a3f af96 c73e 8ae0 d8be
00000100: 844e 3d3f 8a71 993e aa97 eb3d 4cdf cf3f
00000110: e07c 1640 358f 2c3f d04d 10bf 5da6 aebd
00000120: 5b6f cebe 32fc 14c0 8a44 fdbe 5402 f43f
00000130: d627 a43e 6ef3 9b3e 5a4a cc3f 108b c53e
00000140: db93 813d fa08 0440 91b0 0cbf bd97 0bc0
00000150: 5bf8 e2bf ddda c33f a393 2f3f c22b cdbf
00000160: 4814 a2bd bff7 87bf b734 073f 6fc9 1f3e
00000170: ee34 8cbf b25e b0bf 1ed3 b2bf 666b 55be
00000180: 555e 423e b9dc d0bf 936b 3a3f 7969 3c3e
00000190: 5e22 b43e b422 4c3e ab17 bc3f 8ee2 c73e
000001a0: d47c a43e d207 9abf ba40 2a3f fcb3 77be
000001b0: 64b6 13bf 1b8f 533f 1c72 b8bf ec89 be3e
000001c0: 4766 3440 d581 6a3f dedf 1fbf c232 79bf
000001d0: c954 ad3f d0c3 0a3e 1755 a3bf 47bf b0bd
000001e0: e92f 1dbf 711a 91bf 27c5 1a40 7638 5d3f
000001f0: dff3 643f 64ca a7bf abd7 d23f 4b3c 49bf
00000200: 5e1f 77be 0026 59bf aabd 733f c654 033f
00000210: d8d5 083f 5421 7cbf 0524 09be 79ea db3d
00000220: d672 f93f d885 083f ead9 313f 4ca5 033d
00000230: 19e0 24bf 231a bdbe d3b4 503f b5ae c8bf
00000240: 2672 733f 52dc 39be 60ef 5a3e 6fff b53f
00000250: ab7b 04ba 5560 a13e bffb 9fbe b550 523e
00000260: eb99 95bf 5754 e43f 7e8e d73f 7f13 793f
00000270: 1f9e 873f 918f 343e 3343 083f 8173 8c3e
00000280: 0baa 733f 22e9 30bf 997c e83f c7dc 00be
00000290: 0b90 153f 367d a6be 918e 9b3f 0ff2 0a3f
000002a0: 49c5 cbbe a4da 48bf 984a 83bf 2714 d03d
000002b0: 3562 39bf dd3d 9abf 9aa5 2fbf bfd2 be3f
000002c0: 05cd 823f 17bd 31bf fe55 a93e 77fd 3ac0
000002d0: 6273 8f3f 0bdb 6f3f aa54 6cbf e2ad 9ebf
000002e0: 74f0 453d 3de7 a33d 96e9 9dbf 0bec 0440
000002f0: 43d3 1040 e337 d9bc 6dda d03f 5931 0940
00000300: 6ffc 63bf 6815 8abf 6c16 07bf 3383 9abf
00000310: 62a3 11bd 53cf 7abe 5da9 9abe 5aca 27be
00000320: a5d6 593f cd4a a0be 6f94 4b3e 627d efbf
00000330: f3da 463f d34c e4be 75ad 5ebf 3a72 e73e
00000340: bdc7 033f 6f5f 40bf 3952 b4be 9641 a6bf
00000350: a060 1940 feaa ef3e 98d2 80bd 3c26 1bbf
00000360: da99 763f 8558 4fbf c57c 8dbf 84da 8c3e
00000370: 8949 83bf e121 98bf 9dce ff3e 3cf8 503f
00000380: 3fec 84bf 536b 88bf 42e4 87bf 5028 f9be
00000390: 7ea2 43bf 5ac3 bdbf f1e3 df3f 8e32 02c0
000003a0: 73a7 c63f 4c06 313f 40b1 07bf 8356 303f
000003b0: b91c 063e 0b66 9b3e bfc5 76be 496d 42bf
000003c0: f058 1fbf 3fd0 953e fccc 4c3f f943 afbf
000003d0: cc40 5e3f 92d5 0cc0 32db a53d 4973 edbd
000003e0: 2e26 1f3d 6ffc 813e b20a 3dbe 2134 de3e
000003f0: e6d7 4c3f a0b7 66bf 4e92 a0be 8acb 3bbf

fc.weight f4 [1868, 20]
-0.054027118 -0.09058908 -0.12741958 -0.17433488 -0.0153028155 -0.1252837 -0.1355037 0.19770516
-0.19019726 0.20032027 0.06746671 -0.13982515 -0.10216809 0.038403574 0.10704749 0.022757165
0.05288566 0.1209221 0.11153787 0.034033164 -0.1520101 0.03720744 -0.18921328 -0.13539357
0.039107613 -0.17106079 0.15458629 -0.11021458 0.2210412 0.06647217 -0.036041323 0.20928599
0.13189214 -0.116977364 0.2162719 0.15338887 -0.15920101 0.07855009 0.102866255 0.16448192
-0.12993585 -0.10398071 0.060763083 -0.19456725 0.023197858 -0.13142206 0.024482364 0.06201771
0.020371491 -0.08387637 0.040803365 -0.11824192 -0.008501148 -0.13204175 -0.056725886 -0.098463275
0.08211363 -0.050314486 0.026989192 0.16516168 -0.23706228 0.058555264 0.038618203 -0.2444835
0.15011404 -0.13246182 0.080945656 0.11881212 -0.038825825 -0.06305114 0.15715238 -0.08614496
0.2156297 -0.09785395 -0.028300881 -0.14763765 0.23470545 0.10748883 -0.122236446 0.03465743
-0.14609215 -0.19296044 0.019853983 -0.19039543 -0.14932549 -0.04258479 0.13822554 0.16540666
0.15428582 0.18140899 -0.03212218 0.12386695 0.07786212 0.18707255 0.043231446 0.14031357
-0.17641293 0.06404683 0.15601668 0.04441993 -0.17288081 -0.16611509 0.20082891 -0.059632346
-0.07122876 0.2005544 0.031815015 -0.26523665 0.14208214 0.15096784 -0.20043136 -0.20699216
-0.04316592 -0.11112762 0.10342286 0.17342883 0.11245256 0.061771464 -0.18871778 -0.105768435
0.02064953 0.14659543 0.14443618 0.122035004 -0.16278519 -0.20797253 -0.14293917 -0.16399623
0.014753233 -0.1259246 0.13395135 -0.22724152 -0.077100374 -0.15023725 -0.13519068 0.076588616
0.045812175 0.020232415 -0.05182323 0.20576553 0.07138673 -0.10788788 -0.07367185 -0.123267196
0.20195743 -0.0696551 -0.07168938 -0.017625455 -0.12430726 0.21476912 -0.12043551 -0.12576446
0.101410605 0.098775625 -0.014736481 -0.08824216 0.116447866 0.0397507 -0.06813984 0.0018195846
0.03169767 0.15016331 -0.027653867 0.19183463 -0.06666531 0.0275489 0.18643597 -0.07348561
-0.0003325347 0.19997576 -0.10603784 -0.11289937 -0.107992224 -0.16702047 -0.1046195 -0.07423846
-0.14213014 0.023714552 -0.090242855 -0.10548235 0.0711863 0.15545633 -0.018980553 0.12873906
0.10473809 0.1432196 -0.011239918 0.1184617 0.23162124 0.067884944 0.053506408 0.1392557
0.13834192 0.20694827 -0.18704456 -0.014314967 -0.016990863 0.058841255 0.15422802 -0.06895526
-0.14077023 0.07169469 0.08877324 0.13848333 0.090132706 0.08748678 -0.008782745 0.11696209
-0.13117464 0.04712716 0.05205056 0.04275772 0.0174503 -0.12618764 -0.14534064 0.18805166
0.1813597 -0.044479486 0.19907163 0.16444631 0.017538 -0.12180369 0.20422825 0.02722026
0.11832812 0.1738208 0.046598915 0.09206353 -0.13514072 0.17946066 -0.19463582 0.17670567
-0.17132829 -0.028733367 -0.09911763 -0.17178074 0.16064517 -0.09065177 0.1472497 -0.2125954
0.110204056 0.10137039 -0.1159808 -0.2111163 0.1730486 0.11705146 0.19943294 0.06888429
0.047542904 -0.047673568 -0.055833273 -0.042010058 -0.08672583 -0.11700008 -0.03610939 0.12629665
00000000: 8a4b 5dbd c486 b9bd 477a 02be d884 32be
00000010: a9b8 7abc 5f4a 00be 7bc1 0abe 3973 4a3e
00000020: 12c3 42be c220 4d3e fd2b 8a3d 532e 0fbe
00000030: 813d d1bd 114d 1d3d b73b db3d 3c6d ba3c
00000040: a29e 583d 02a6 f73d f76d e43d 5c66 0b3d
00000050: 89a8 1bbe d466 183d 20c1 41be 9da4 0abe
00000060: 4e2f 203d 8f2a 2fbe de4b 1e3e 2fb8 e1bd
00000070: a058 623e 9022 883d 11a0 13bd 114f 563e
00000080: bc0e 073e d491 efbd 6276 5d3e f911 1d3e
00000090: 9705 23be dfde a03d 8bab d23d f36d 283e
000000a0: e70d 05be d7f3 d4bd b6e2 783d a33c 47be
000000b0: 6f09 be3c 8193 06be 3d8f c83c 4806 7e3d
000000c0: 1de2 a63c 60c7 abbd 6e21 273d d228 f2bd
000000d0: 6648 0bbc f435 07be 6759 68bd 1da7 c9bd
000000e0: 312b a83d 9016 4ebd 7018 dd3c 2520 293e
000000f0: 74c0 72be a5d7 6f3d 1f2e 1e3d e259 7abe
00000100: 7fb7 193e 12a4 07be d6c6 a53d c553 f33d
00000110: d407 1fbd f520 81bd 8eec 203e c56c b0bd
00000120: 08ce 5c3e a767 c8bd 40d7 e7bc 532e 17be
00000130: a056 703e 1b23 dc3d 1a57 fabd f3f4 0d3d
00000140: 2e99 15be 6c97 45be d2a4 a23c 05f7 42be
00000150: c8e8 18be 646d 2ebd ff8a 0d3e 5d60 293e
00000160: 1afd 1d3e 47c3 393e 8c92 03bd f5ad fd3d
00000170: 2d76 9f3d f28f 3f3e 7513 313d 5cae 0f3e
00000180: 97a5 34be fc2a 833d d6c2 1f3e acf1 353d
00000190: ab07 31be 131a 2abe 18a6 4d3e 0c41 74bd
000001a0: 62e0 91bd 225e 4d3e 7650 023d 19cd 87be
000001b0: fb7d 113e 5097 1a3e e13d 4dbe c1f5 53be
000001c0: bfce 30bd e196 e3bd 5dcf d33d 5497 313e
000001d0: 874d e63d 1304 7d3d 3c3f 41be 1f9d d8bd
000001e0: 3429 a93c 1d1d 163e 14e7 133e 7ded f93d
000001f0: 29b1 26be c0f6 54be a55e 12be a1ee 27be
00000200: 8bb7 713c 61f2 00be 8b2a 093e 00b2 68be
00000210: cde6 9dbd cbd7 19be 6d6f 0abe 7eda 9c3d
00000220: 8ca5 3b3d 73be a53c 9844 54bd 33b4 523e
00000230: 3533 923d 52f4 dcbd 44e1 96bd 8373 fcbd
00000240: eecd 4e3e 55a7 8ebd e2d1 92bd 4263 90bc
00000250: ce94 febd 70ec 5b3e e5a6 f6bd 66c8 00be
00000260: 5db0 cf3d e04a ca3d 4871 71bc 4eb8 b4bd
00000270: 387c ee3d a1d1 223d e78c 8bbd 217f ee3a
00000280: 6bd5 013d 69c4 193e 5d8a e2bc 4c70 443e
00000290: d287 88bd 3bae e13c 12e9 3e3e a07f 96bd
000002a0: 0d58 aeb9 72c6 4c3e 5e2a d9bd c937 e7bd
000002b0: 072b ddbd 6a07 2bbe c042 d6bd 550a 98bd
000002c0: 908a 11be 0545 c23c 3fd1 b8bd 2107 d8bd
000002d0: 1fca 913d f22f 1f3e 1b7d 9bbc 2cd4 033e
000002e0: ec80 d63d 29a8 123e a227 38bc 0c9c f23d
000002f0: 1e2e 6d3e 4307 8b3d 8929 5b3d 0c99 0e3e
00000300: 81a9 0d3e 3fea 533e 9c88 3fbe 5389 6abc
00000310: 6c30 8bbc 8703 713d f3ed 1d3e 6a38 8dbd
00000320: 1226 10be aad4 923d bfce b53d 93ce 0d3e
00000330: 7f97 b83d 452c b33d 81e5 0fbc d289 ef3d
00000340: a552 06be 6908 413d f832 553d b822 2f3d
00000350: eef3 8e3c 5537 01be 2dd4 14be 9d90 403e
00000360: 5bb6 393e 1f30 36bd 6fd9 4b3e 9d64 283e
00000370: daab 8f3c 3774 f9bd 3621 513e 06fd de3c
00000380: 0356 f23d 14fe 313e 81de 3e3d ce8b bc3d
00000390: 5462 0abe 89c4 373e 9d4e 47be 55f2 343e
000003a0: af70 2fbe 3d62 ebbc 2ffe cabd 4ae7 2fbe
000003b0: 2b80 243e a3a7 b9bd a0c8 163e 9cb2 59be
000003c0: aab2 e13d 479b cf3d 5787 edbd df2e 58be
000003d0: a733 313e adb8 ef3d 2638 4c3e 3513 8d3d
000003e0: 59bc 423d 5c45 43bd 6eb1 64bd bd12 2cbd
000003f0: 509d b1bd bd9d efbd 71e7 13bd e953 013e

fc.bias f4 [1868]
0.06311526 -0.21037655 -0.20142116 0.2892051 0.095282085 0.051869445 0.06633404 -0.1301885
-0.21982937 0.010404269 -0.026130633 -0.0278169 0.036523886 -0.087187186 0.18064462 -0.08491045
-0.042423364 -0.0598507 0.16627751 -0.23377015 0.17814536 -0.23497021 -0.024097422 -0.08793083
-0.041484162 -0.12059735 -0.035203807 -0.16749205 -0.045250118 -0.13441019 -0.1577655 -0.12711518
0.10089166 -0.07880786 0.09011319 0.17126681 -0.07680342 -0.15952449 0.009944769 -0.12561515
-0.10354858 -0.11417287 0.19144866 -0.009569862 -0.07925037 0.17126906 0.100646205 -0.17119831
0.15630478 0.10900869 -0.21899392 0.1799098 0.04811404 -0.1042014 0.15487267 -0.13019541
0.09833991 -0.052566383 -0.16666828 0.16028805 0.18173626 0.07098208 -0.17661788 0.18611284
0.113975905 -0.058372855 0.044615794 -0.021634504 0.038725425 0.13737296 0.012839567 0.18901698
-0.02629978 0.10887002 0.099743135 -0.17190251 -0.1206763 0.03762476 -0.12997718 0.08385465
-0.013656832 -0.21006775 0.03533614 0.15440856 -0.10089363 0.14570159 0.020319862 -0.07081368
0.03694959 0.07696584 -0.06473559 -0.1196696 0.030087344 -0.11324595 0.08050078 0.12957625
0.008833277 0.017231777 0.10684591 -0.16964608 -0.021113094 0.045094803 -0.13246346 0.15054633
-0.09297787 0.17372562 0.046516005 0.059947457 0.8264734 -0.011730658 -0.00758736 0.035767395
0.027815813 0.01535778 -0.1470116 0.1655246 0.04215751 0.21326315 -0.05949408 -0.20917584
0.009652435 -0.14845558 -0.10510549 -0.13159724 -0.1578757 -0.0050906646 -0.031870015 -0.08194315
0.14465201 -0.017208807 0.058049344 -0.043693237 -0.17213956 0.18306297 0.004647614 -0.11044812
-0.14750934 -0.037641812 -0.11192019 0.21150751 -0.02393671 0.0036870674 -0.13100885 -0.056800544
-0.20609012 0.2728694 -0.15227975 -0.16658956 0.123604365 -0.07822433 0.20294671 -0.088751055
-0.1926112 -0.16492774 0.14874974 0.12687425 0.39550868 0.3304931 -0.21153802 0.2015253
-0.13710827 -0.13532114 -0.018435761 -0.11521364 -0.055569243 0.22305623 -0.16492017 -0.020845896
-0.11631935 -0.21031177 0.13210712 0.026569905 -0.02259971 0.026612772 0.010016864 0.71648145
0.14341956 0.2617458 -0.18905249 -0.2210238 0.20906547 0.13843887 -0.010209541 -0.08545029
-0.15502152 -0.17169291 0.03293293 0.13426603 -0.21996118 -0.17840867 -0.08254953 0.3461327
0.13748199 -0.13588545 0.14193878 -0.12635918 0.20939055 -0.13113075 0.0031710877 -0.10127623
-0.10148565 0.030890074 -0.15777855 -0.1205528 -0.061030533 -1.7252763e-05 -0.14080115 -0.037269596
0.17774141 0.024312546 0.018328661 -0.23803416 -0.13880874 -0.14851268 0.007617655 0.07855435
-0.20774879 0.17288534 -0.22046874 0.028780688 -0.05979311 -0.18469204 0.10173127 -0.21439539
0.07389463 -0.035741437 0.14734046 0.108791135 -7.0183094e-05 -0.23805197 -0.14864358 -0.12013484
0.0744117 0.14419222 -0.19767438 -0.12318727 -0.036447074 0.0773559 0.030391442 -0.086168446
0.15951484 -0.21658951 -0.02774583 0.07383077 -0.098019324 -0.061435252 2.4004645e-05 -0.016299017
-0.1799766 0.19239378 -0.095182456 0.038619347 -0.026181504 -0.09632854 -0.014873245 0.9505615
00000000: 9342 813d f36c 57be 5941 4ebe b112 943e
00000010: 4123 c33d 0e75 543d 24da 873d 2250 05be
00000020: f31a 61be ab76 2a3c e90f d6bc 44e0 e3bc
00000030: 129a 153d 328f b2bd e7fa 383e 88e5 adbd
00000040: 1fc4 2dbd 0226 75bd a744 2a3e 7161 6fbe
00000050: bd6b 363e 089c 70be f567 c5bc 1415 b4bd
00000060: 4ceb 29bd befb f6bd de31 10bd 0983 2bbe
00000070: 3058 39bd d3a2 09be 478d 21be 7b2a 02be
00000080: 49a0 ce3d 0466 a1bd 448d b83d 9160 2f3e
00000090: 1d4b 9dbd 635a 23be 62ef 223c 42a1 00be
000000a0: 4711 d4bd 77d3 e9bd 1e0b 443e e9ca 1cbc
000000b0: 054e a2bd 2861 2f3e 991f ce3d 9c4e 2fbe
000000c0: 5c0e 203e f33f df3d f13f 60be 463a 383e
000000d0: 3a13 453d 8b67 d5bd f196 1e3e f251 05be
000000e0: 6f66 c93d d94f 57bd 17ab 2abe 8d22 243e
000000f0: 1219 3a3e 0e5f 913d 51db 34be 5d94 3e3e
00000100: 336c e93d 6018 6fbd 0dbf 363d d83a b1bc
00000110: 8d9e 1e3d 7fab 0c3e 0c5d 523c ab8d 413e
00000120: a372 d7bc 3ff7 de3d 2146 cc3d 3607 30be
00000130: 2325 f7bd 6c1c 1a3d bd18 05be fdbb ab3d
00000140: e8c0 5fbc 001c 57be a1bc 103d 471d 1e3e
00000150: 52a1 cebd cc32 153e d775 a63c c306 91bd
00000160: 7458 173d 44a0 9d3d 1894 84bd 5615 f5bd
00000170: bc79 f63c 7eed e7bd 98dd a43d a3af 043e
00000180: 73b9 103c a829 8d3c 07d2 da3d b4b7 2dbe
00000190: 5ef5 acbc 54b5 383d 80a4 07be d128 1a3e
000001a0: 2e6b bebd 21e5 313e 9187 3e3d 778b 753d
000001b0: c393 533f f231 40bc 649f f8bb d580 123d
000001c0: fddd e33c 339f 7b3c 358a 16be 487f 293e
000001d0: 5aad 2c3d a861 5a3e 10b0 73bd 3132 56be
000001e0: 3f25 1e3c bd04 18be 8c41 d7bd 6dc1 06be
000001f0: 2baa 21be 97cf a6bb 228a 02bd cfd1 a7bd
00000200: a81f 143e 7cf9 8cbc 26c5 6d3d aef7 32bd
00000210: 5a45 30be dc74 3b3e 034b 983b a032 e2bd
00000220: b00c 17be 4d2e 1abd 6a36 e5bd 6d95 583e
00000230: eb16 c4bc baa2 713b 2f27 06be b0a7 68bd
00000240: 4a09 53be 8ab5 8b3e 39ef 1bbe 7496 2abe
00000250: 4924 fd3d 1434 a0bd 43d1 4f3e 1dc3 b5bd
00000260: df3b 45be d1e2 28be da51 183e 53eb 013e
00000270: 1d80 ca3e 6436 a93e 6c9d 58be a65c 4e3e
00000280: 1c66 0cbe a091 0abe 9806 97bc 21f5 ebbd
00000290: 939c 63bd da68 643e d5e0 28be 03c5 aabc
000002a0: d738 eebd f85b 57be 1747 073e 21a9 d93c
000002b0: 0723 b9bc 0703 da3c c61d 243c 546b 373f
000002c0: 94dc 123e 8c03 863e fa96 41be 1054 62be
000002d0: 4215 563e ebc2 0d3e eb45 27bc 9000 afbd
000002e0: f6bd 1ebe 44d0 2fbe aee4 063d 097d 093e
000002f0: 813d 61be c3b0 36be ba0f a9bd 4e38 b13e
00000300: 14c8 0c3e 8e25 0bbe 6658 113e 4d64 01be
00000310: 7a6a 563e 2447 06be 06d2 4f3b e969 cfbd
00000320: b5d7 cfbd 2e0d fd3c b390 21be 63e4 f6bd
00000330: 27fb 79bd 07ba 90b7 2d2e 10be 01a8 18bd
00000340: d801 363e 1b2b c73c fd25 963c 3abf 73be
00000350: e123 0ebe b513 18be 869d f93b 1ae1 a03d
00000360: 19bc 54be db08 313e 8fc2 61be 7ac5 eb3c
00000370: 9fe9 74bd e91f 3dbe 7c58 d03d 778a 5bbe
00000380: 1156 973d 9d65 12bd 6be0 163e e3cd de3d
00000390: 432f 93b8 e5c3 73be 0636 18be 4109 f6bd
000003a0: 2965 983d 20a7 133e 276b 4abe 9b49 fcbd
000003b0: 8749 15bd c56c 9e3d 79f7 f83c 1579 b0bd
000003c0: dc57 233e a4c9 5dbe 394b e3bc 9634 973d
000003d0: 5bbe c8bd 88a3 7bbd 955d c937 8485 85bc
000003e0: c94b 38be e002 453e 05ef c2bd 522f 1e3d
000003f0: 987a d6bc e647 c5bd e9ae 73bc 0058 733f
